…
2021-09-28 15:26:22.450112: I tensorflow/compiler/mlir/mlir_graph_optimization_pass.cc:185] None of the MLIR Optimization Passes are enabled (registered 2)
Normalization done
Sample dataset:  <TakeDataset shapes: ((None, 224, 224, 3), (None,)), types: (tf.float32, tf.int32)>
['car_nitro', 'happy', 'horror']
Model: "model"
_________________________________________________________________
Layer (type)                 Output Shape              Param #
=================================================================
input_1 (InputLayer)         [(None, 224, 224, 3)]     0
_________________________________________________________________
block1_conv1 (Conv2D)        (None, 224, 224, 64)      1792
_________________________________________________________________
block1_conv2 (Conv2D)        (None, 224, 224, 64)      36928
_________________________________________________________________
block1_pool (MaxPooling2D)   (None, 112, 112, 64)      0
_________________________________________________________________
block2_conv1 (Conv2D)        (None, 112, 112, 128)     73856
_________________________________________________________________
block2_conv2 (Conv2D)        (None, 112, 112, 128)     147584
_________________________________________________________________
block2_pool (MaxPooling2D)   (None, 56, 56, 128)       0
_________________________________________________________________
block3_conv1 (Conv2D)        (None, 56, 56, 256)       295168
_________________________________________________________________
block3_conv2 (Conv2D)        (None, 56, 56, 256)       590080
_________________________________________________________________
block3_conv3 (Conv2D)        (None, 56, 56, 256)       590080
_________________________________________________________________
block3_pool (MaxPooling2D)   (None, 28, 28, 256)       0
_________________________________________________________________
block4_conv1 (Conv2D)        (None, 28, 28, 512)       1180160
_________________________________________________________________
block4_conv2 (Conv2D)        (None, 28, 28, 512)       2359808
_________________________________________________________________
block4_conv3 (Conv2D)        (None, 28, 28, 512)       2359808
_________________________________________________________________
block4_pool (MaxPooling2D)   (None, 14, 14, 512)       0
_________________________________________________________________
block5_conv1 (Conv2D)        (None, 14, 14, 512)       2359808
_________________________________________________________________
block5_conv2 (Conv2D)        (None, 14, 14, 512)       2359808
_________________________________________________________________
block5_conv3 (Conv2D)        (None, 14, 14, 512)       2359808
_________________________________________________________________
block5_pool (MaxPooling2D)   (None, 7, 7, 512)         0
_________________________________________________________________
global_average_pooling2d (Gl (None, 512)               0
_________________________________________________________________
dense (Dense)                (None, 512)               262656
_________________________________________________________________
dropout (Dropout)            (None, 512)               0
_________________________________________________________________
dense_1 (Dense)              (None, 256)               131328
_________________________________________________________________
dense_2 (Dense)              (None, 128)               32896
_________________________________________________________________
batch_normalization (BatchNo (None, 128)               512
_________________________________________________________________
dense_3 (Dense)              (None, 64)                8256
_________________________________________________________________
dense_4 (Dense)              (None, 3)                 195
=================================================================
Total params: 15,150,531
Trainable params: 15,150,275
Non-trainable params: 256
_________________________________________________________________
None
2021-09-28 15:26:22.889199: I tensorflow/core/profiler/lib/profiler_session.cc:131] Profiler session initializing.
2021-09-28 15:26:22.889350: I tensorflow/core/profiler/lib/profiler_session.cc:146] Profiler session started.
…
